…
    "render_gpu_device_id": 0,
    "reward_shaping": false,
    "robots": [
        "Panda"
    ],
    "use_camera_obs": false,
    "use_object_obs": true
}

number of parameters: 72.50M

============= Model Summary =============
ACT (
  ModuleDict(
    (policy): DETRVAE(
      (transformer): Transformer(
        (encoder): TransformerEncoder(
          (layers): ModuleList(
            (0-3): 4 x TransformerEncoderLayer(
              (self_attn): MultiheadAttention(
                (out_proj): NonDynamicallyQuantizableLinear(in_features=512, out_features=512, bias=True)
              )
              (linear1): Linear(in_features=512, out_features=3200, bias=True)
              (dropout): Dropout(p=0.1, inplace=False)
              (linear2): Linear(in_features=3200, out_features=512, bias=True)
              (norm1): LayerNorm((512,), eps=1e-05, elementwise_affine=True)
              (norm2): LayerNorm((512,), eps=1e-05, elementwise_affine=True)
              (dropout1): Dropout(p=0.1, inplace=False)
              (dropout2): Dropout(p=0.1, inplace=False)
            )
          )
        )
        (decoder): TransformerDecoder(
          (layers): ModuleList(
            (0-6): 7 x TransformerDecoderLayer(
              (self_attn): MultiheadAttention(
                (out_proj): NonDynamicallyQuantizableLinear(in_features=512, out_features=512, bias=True)
              )
              (multihead_attn): MultiheadAttention(
                (out_proj): NonDynamicallyQuantizableLinear(in_features=512, out_features=512, bias=True)
              )
              (linear1): Linear(in_features=512, out_features=3200, bias=True)
              (dropout): Dropout(p=0.1, inplace=False)
              (linear2): Linear(in_features=3200, out_features=512, bias=True)
              (norm1): LayerNorm((512,), eps=1e-05, elementwise_affine=True)
              (norm2): LayerNorm((512,), eps=1e-05, elementwise_affine=True)
              (norm3): LayerNorm((512,), eps=1e-05, elementwise_affine=True)
              (dropout1): Dropout(p=0.1, inplace=False)
              (dropout2): Dropout(p=0.1, inplace=False)
              (dropout3): Dropout(p=0.1, inplace=False)
            )
          )
          (norm): LayerNorm((512,), eps=1e-05, elementwise_affine=True)
        )
      )
      (encoder): TransformerEncoder(
        (layers): ModuleList(
          (0-3): 4 x TransformerEncoderLayer(
            (self_attn): MultiheadAttention(
              (out_proj): NonDynamicallyQuantizableLinear(in_features=512, out_features=512, bias=True)
            )
            (linear1): Linear(in_features=512, out_features=3200, bias=True)
            (dropout): Dropout(p=0.1, inplace=False)
            (linear2): Linear(in_features=3200, out_features=512, bias=True)
            (norm1): LayerNorm((512,), eps=1e-05, elementwise_affine=True)
            (norm2): LayerNorm((512,), eps=1e-05, elementwise_affine=True)
            (dropout1): Dropout(p=0.1, inplace=False)
            (dropout2): Dropout(p=0.1, inplace=False)
          )
        )
      )
      (action_head): Linear(in_features=512, out_features=7, bias=True)
      (is_pad_head): Linear(in_features=512, out_features=1, bias=True)
      (query_embed): Embedding(16, 512)
      (input_proj_robot_state): Linear(in_features=65, out_features=512, bias=True)
      (input_proj_env_state): Linear(in_features=10, out_features=512, bias=True)
      (pos): Embedding(2, 512)
      (cls_embed): Embedding(1, 512)
      (encoder_action_proj): Linear(in_features=7, out_features=512, bias=True)
      (encoder_joint_proj): Linear(in_features=65, out_features=512, bias=True)
      (latent_proj): Linear(in_features=512, out_features=64, bias=True)
      (latent_out_proj): Linear(in_features=32, out_features=512, bias=True)
      (additional_pos_embed): Embedding(2, 512)
    )
  )
)


============= Training Dataset =============
SequenceDataset (
	path=/home/wjung85/Repo/projects/robomimic-safediffusion/datasets/breadpickplace/franka_bread_final.hdf5
	obs_keys=('object', 'robot0_eef_pos', 'robot0_eef_quat', 'robot0_gripper_qpos')
	seq_length=16
	filter_key=none
	frame_stack=1
	pad_seq_length=True
	pad_frame_stack=True
	goal_mode=none
	cache_mode=none
	num_demos=100
…
